model.tflite (tflite, 22348 bytes, 6 tensors)

sequential/dense_1/BiasAdd/ReadVariableOp f4 [64]
00000000: f3af e5bc 0000 0000 4418 b83d f2a6 98bc
00000010: 0000 0000 9abb a73d 291f 44bd 0b08 8ebc
00000020: 0000 0000 0000 0000 0000 0000 f5c2 13be
00000030: 58b4 dcbb 0000 0000 5325 20be 0000 0000
00000040: 1e3e 8b3d 9a4e e9bc de17 e0bd ce24 033d
00000050: 5a2e 843d 132a fcbc 0000 0000 432f d33d
00000060: defc a7bd 0646 6a3b 0000 0000 8acf 3dbe
00000070: 0000 0000 0000 0000 5279 f43c f732 f23c
00000080: 0000 0000 0000 0000 dcfc 58be 8eb8 c23d
00000090: 0000 0000 0000 0000 edda d9bc c03e 5cbd
000000a0: 0000 0000 b94a 26bc 0000 0000 1add 40bd
000000b0: 469c d43d 66d9 a7bc 627b a03d 0000 0000
000000c0: 0000 0000 3ec1 c4bb 0000 0000 1ef6 cabc
000000d0: 3be4 a8bb ca40 413d 0000 0000 0000 0000
000000e0: 0000 0000 6828 883e 3000 9abe 22f8 66bc
000000f0: 10cd 71bd 0000 0000 0000 0000 ea72 193e
-0.028038 0.0 0.08989003 -0.018634293 0.0 0.08190079 -0.04788128 -0.01733782
0.0 0.0 0.0 -0.14429839 -0.006735366 0.0 -0.15639238 0.0
0.06798957 -0.028479863 -0.10942052 0.03201752 0.06454153 -0.030781781 0.0 0.10311749
-0.082025275 0.0035747304 0.0 -0.18536201 0.0 0.0 0.029843006 0.029565318
0.0 0.0 -0.21190208 0.09507857 0.0 0.0 -0.02659365 -0.05377078
0.0 -0.010149651 0.0 -0.04708586 0.10381369 -0.020489406 0.078360334 0.0
0.0 -0.0060044816 0.0 -0.024775561 -0.0051541603 0.04718093 0.0 0.0
0.0 0.26593328 -0.30078268 -0.014097245 -0.059033453 0.0 0.0 0.14985242

sequential/dense_2/BiasAdd/ReadVariableOp f4 [8]
00000000: 2a6a da3d e9fb 993d 2f4a 833d 6d09 193e
00000010: f11d 91bd 15a8 7abc ac00 b2bd 3694 25be
0.106647804 0.07518751 0.06410634 0.14945002 -0.07085789 -0.015298863 -0.086915344 -0.16169819

sequential/dense/BiasAdd/ReadVariableOp f4 [64]
00000000: 0000 0000 5927 d93d bd07 47be a0a8 523e
00000010: 79c2 3abe 0000 0000 f24f 14be 5989 d13d
00000020: 0000 0000 71f6 593d 05ba 2f3e 0000 0000
00000030: 0000 0000 0000 0000 fba3 623e 0000 0000
00000040: b355 11be 0000 0000 448d 3fbe ee53 d2bd
00000050: fdcb bdbd 8f29 b1bb 0c36 4cbe 0000 0000
00000060: 6a28 a53d 0000 0000 d3c3 1bbd 2aea fabc
00000070: aee6 913e 3e0c 123d 7922 003e e250 3d3e
00000080: 0000 0000 381e ecbd 0000 0000 cb30 85be
00000090: 0000 0000 7557 e2bd d77c 29be 0000 0000
000000a0: 0000 0000 3ffe 10be 937f 1abc 0000 0000
000000b0: 0000 0000 bfad 9fbe 7256 043e 0000 0000
000000c0: 8161 ad3d 39a6 73bb 0000 0000 0ceb 3fbc
000000d0: 5f88 1d3e 0000 0000 0000 0000 0000 0000
000000e0: 0000 0000 0000 0000 0000 0000 90ff 253e
000000f0: 0000 0000 84bd 2f3e 67ee 003e a008 fa3d
0.0 0.10603208 -0.19436546 0.20572138 -0.18238248 0.0 -0.14483622 0.10231275
0.0 0.05321354 0.17160805 0.0 0.0 0.0 0.22132866 0.0
-0.14192848 0.0 -0.18706232 -0.102699146 -0.09267423 -0.0054065655 -0.19942492 0.0
0.08064349 0.0 -0.03802855 -0.030629236 0.28496307 0.035656206 0.1251315 0.18487886
0.0 -0.11529201 0.0 -0.2601379 0.0 -0.11051837 -0.16551529 0.0
0.0 -0.14159487 -0.00942983 0.0 0.0 -0.31187245 0.12923601 0.0
0.08465863 -0.0037177934 0.0 -0.011713754 0.15384053 0.0 0.0 0.0
0.0 0.0 0.0 0.1621077 0.0 0.17162138 0.12590943 0.12208676

sequential/dense/MatMul f4 [64, 5]
00000000: bd6d 45be 18f7 34be 3687 d8bd 3020 7c3e
00000010: 44f1 473e 8226 7d3d a7b0 5c3e ae44 ddbd
00000020: 61f6 e9be 2c64 4b3f 0e0e 963d 08b3 2e3e
00000030: f90a b2be 3a42 153f 7eee 12bf 39a0 2fbe
00000040: e017 f63d 7c60 94bd 86c1 babf 9190 bdbf
00000050: c14f 753e 5b3c 183e 2c80 b2bd 6069 9fbc
00000060: 490f fbbd b446 e2bd e45d 61be 428f 50be
00000070: 6eb5 96be cbf6 64be ccd6 133e 092a cc3d
00000080: 48d3 54be e47f 4c3f ffdb 1fbf 5910 53be
00000090: f097 653e a130 9b3e 4a60 92bc dc51 8abe
000000a0: 784b 05be 70be 7bbd c082 863c 10ca bebd
000000b0: 3f9f 02be e540 333e 2510 ca3d 3ba2 933e
000000c0: 94f1 ad3d 1d5e adbf d524 5fbd 5ebd 673d
000000d0: 224f 0dbe 5622 4cbf 67b1 013e 285b b33d
000000e0: beb5 4bbe d016 bebd 0c0d 423e 20d1 043e
000000f0: 946e 903d d344 3bbe 687a 07bd 147d f13d
00000100: 664c e6bd fb0d 19be 4c27 a8bd fa8d e5bd
00000110: 7206 88be 6e98 823e 06e7 95bd b7f6 993d
00000120: 2d17 bc3d f439 acbf ba8c d43f f394 47be
00000130: 089d e0bd 50c4 8f3e d083 b5bc 86b9 413e
00000140: 08d8 9c3e 6bd1 223e bd6b 53bb 7312 febe
00000150: 8df2 2ebf a7ca 0abe 32b6 83be 3670 483e
00000160: a8ea d73d 48b0 943d 07c7 8b3e 2108 62bd
00000170: 55ea 1abe 00e0 5cbf 94eb 8b3f c8d8 113d
00000180: 2a17 9a3d c893 55be 7024 1fbf b0db 40bf
00000190: d1ee 323d decd f43c 5fdc 47be 5930 95bf
000001a0: 1b5c 273f 375a 97be 8eba 813d ba45 503e
000001b0: 0b8e 3ebe 525d 583e 36cd 803e 816d 013e
000001c0: b658 853d bea3 253d 868b 49bf a8d5 073d
000001d0: 97dc 00be e000 8f3e 4c10 59bd f11e 85be
000001e0: ce1f cabb 9d6f 563e efe1 9a3e b651 743f
000001f0: fae0 123f 840f 05be 5f53 88be 00bb 18bc
00000200: b825 9c3d ce8f 4cbe d96f 1cbd d738 593e
00000210: 9cb6 6c3c 4a4e eb3c 4fda 7dbf 051e 023e
00000220: be86 793e f52a 5abd b6a8 7d3f 491a 173f
00000230: cecd a3be 6341 173e 5ae5 4d3e 1ed3 673f
00000240: 5822 1fbf c307 26bd c21c 733e 87ff b93d
00000250: ebde 433f 8de4 8b3f ba26 d8bd a70f 4b3e
00000260: 67c2 a33e 5209 4fbf c898 233e bf59 fcbd
00000270: 349c ce3d 00bd e0bc dd4e 553f 7ba2 133d
00000280: 6277 36be ac09 4cbe d4ab 593e da01 013e
00000290: e0b6 eabd 6d27 833e 4ac0 a73d 1068 1cbe
000002a0: b7bd 4f3f c411 313f 3d60 96be cef1 38be
000002b0: fa26 3e3e 5253 5abe 2a47 933e 9b5e c43d
000002c0: 2e52 853d 59f6 9abe 9c4f 4abd 535c 81bf
000002d0: 6871 00bd 3024 89be 82bf a5bd 5c81 40bd
000002e0: aaaa 50be 2f0d 8f3e 5ced 853e fe77 a23c
000002f0: 7473 7e3e 9953 683f 7edb 7c3e 59d1 43bd
00000300: ae48 993d 24e1 65bf 8846 e1be 4caf 653e
00000310: 7f9b 67be f826 29bd 2851 3fbe 1e8b 95be
00000320: a6c4 a1bd fc35 f9bd 0cb9 833d 3051 7d3d
00000330: da77 9bbd c085 5f3e e491 703e e082 81be
00000340: 6da5 00bf 1ba0 3fbf 3567 603e 4425 54be
00000350: f406 a9bd 9363 e0bd 15e5 823e 28c8 57bd
00000360: a49a f3bd b459 a33d 007e fc3d 3874 723e
00000370: cc8e bdbd 9408 e5bd c068 063e a4b7 373e
00000380: 00ee 4d3b 6f20 803e ebb9 a93b 44c3 06bf
00000390: 7b2c 4cbe c7bc 9ebf 18e9 9fbd ef79 bd3d
000003a0: fafd 0b3e 0a61 423f 1dde 273d 3a6e f2bd
000003b0: e539 16be c801 8b3e bc91 6a3e 0492 863e
000003c0: dcc7 de3d 3c69 0c3e 8a4e 5a3d 7795 5ebf
000003d0: 0952 fbbe 452e 323e 2a17 853e 1cc5 19bb
000003e0: 9f5b 92bf d776 4bbf 0cac cbbd 30a1 b4bc
000003f0: ba8a 08be 7e16 49be 9496 753e 5595 843e
-0.19280143 -0.17672384 -0.105726644 0.24621654 0.1952563 0.061804302 0.21551763 -0.10804115
-0.45695785 0.79449725 0.073268995 0.17060483 -0.34773996 0.5830418 -0.5739516 -0.17150964
0.120162725 -0.072449654 -1.4590309 -1.4809743 0.23956205 0.14866774 -0.08715853 -0.019459426
-0.12258775 -0.11048642 -0.22008473 -0.20367149 -0.29435295 -0.22359769 0.14437407 0.09968955
-0.20783722 0.79882646 -0.6244506 -0.20611705 0.22421241 0.30310538 -0.01786818 -0.2701558
-0.1301707 -0.061460912 0.016419768 -0.09315884 -0.1275606 0.17505224 0.098663606 0.2883471
0.08493343 -1.3544346 -0.054478485 0.05657708 -0.13799718 -0.7973989 0.1266533 0.08757621
-0.19893548 -0.09281695 0.1895029 0.129704 0.07052341 -0.18287973 -0.03307572 0.11791435
-0.112450406 -0.1494674 -0.0821062 -0.112087205 -0.26567417 0.2550692 -0.07319455 0.0751776
0.09184108 -1.3455186 1.6605446 -0.19490413 -0.10967451 0.28079462 -0.02215758 0.18918428
0.3063357 0.15900199 -0.0032260262 -0.4962345 -0.68338853 -0.13553868 -0.25724941 0.19574055
0.10542804 0.072601855 0.27300283 -0.055183534 -0.15128453 -0.86279297 1.0931268 0.03560713
0.075239494 -0.20857155 -0.62164974 -0.75335217 0.043684784 0.029883321 -0.19517659 -1.165538
0.65374917 -0.29561016 0.063344106 0.20339099 -0.18608873 0.21129349 0.25156564 0.12639429
0.06511061 0.04043936 -0.7872852 0.033162743 -0.12584148 0.27930355 -0.052994058 -0.2600017
-0.006168342 0.20941015 0.302505 0.9543718 0.57374537 -0.129942 -0.26626107 -0.009321928
0.07624382 -0.19976732 -0.038192604 0.21213089 0.014447834 0.028723855 -0.9916124 0.12706764
0.24367806 -0.053263623 0.9908556 0.5902448 -0.31992954 0.14771037 0.20107022 0.90556514
-0.6216178 -0.040534746 0.23741439 0.09081941 0.7651202 1.0929123 -0.105542615 0.1983019
0.31984255 -0.80873597 0.1597625 -0.12321805 0.10088387 -0.027433872 0.8332346 0.036043625
-0.17818978 -0.19925565 0.21256953 0.12598363 -0.11460662 0.25616017 0.08190973 -0.15274072
0.81148857 0.69167733 -0.293703 -0.18060991 0.18569556 -0.21320847 0.2876523 0.09588357
0.06509815 -0.30266073 -0.049392328 -1.01063 -0.031358153 -0.2678542 -0.08093168 -0.046998367
-0.20377603 0.27939746 0.26157653 0.019832607 0.2484873 0.9075256 0.24693105 -0.04780707
0.07484566 -0.8979666 -0.43999124 0.22430152 -0.22617911 -0.04129693 -0.18683302 -0.292077
-0.07898836 -0.121685 0.06431779 0.061845005 -0.07591219 0.21828365 0.23493153 -0.25295162
-0.5025242 -0.74853677 0.2191437 -0.2071734 -0.08253279 -0.10956492 0.255654 -0.05268112
-0.1189473 0.07976094 0.1232872 0.23677146 -0.09255752 -0.11183277 0.13125896 0.17941147
0.0031422377 0.25024745 0.005179634 -0.526417 -0.19938843 -1.240136 -0.07808131 0.092517726
0.13671103 0.7592932 0.040983308 -0.1183743 -0.14670523 0.27149796 0.22907156 0.26283276
0.10877964 0.13712019 0.053297557 -0.86946815 -0.49086025 0.17400463 0.25994235 -0.0023463434
-1.143421 -0.7947821 -0.09944925 -0.022049516 -0.1333417 -0.19637486 0.23983222 0.2589518

sequential/dense_1/MatMul f4 [64, 64]
00000000: 4db5 17be ec23 43be 0686 17bd aebb 963e
00000010: 54b4 033e 041e 92bd 6eb2 883e a7f0 babd
00000020: 06a1 eebd 5001 663e 2326 4dbe 7ef9 aa3d
00000030: 9b3f 153e 2fa6 4a3e d20c 0cbf ca7d 04be
00000040: 3f04 06be d832 8abd 14b4 a0be a107 203e
00000050: 80b0 1f3d df05 0dbd 00c5 393e d011 763c
00000060: afc0 2f3e 0067 5dbc 4927 b2bd c898 e23d
00000070: 3fb1 e53d d4a0 5bbe 86d8 5bbe d6f0 613d
00000080: b0f1 053d f0cf c9bd db4f 393e a0d2 5b3e
00000090: e0a2 5e3c fcfc c43d 066d 31be f882 a8bd
000000a0: 5c0d 6a3d 6d1f ca3d 661f 04be 9bd7 213e
000000b0: ce1c 47be 5df7 d93d 8321 6a3e c05f 14be
000000c0: 17b1 d0bc d4d7 00be ca57 20be 3557 633e
000000d0: 62ca 2d3e 92d0 b43d fdd1 50be 8ffc 463e
000000e0: 651e 053e 6880 003d 28bd 10be a4a9 23be
000000f0: 6707 2bbe 37f2 563e 28e4 04be 4024 e83d
00000100: cbcc 083e a529 373e 971a 043e 89fd eabd
00000110: c96e 483e 00d3 6e3c 28a7 28bd e553 333e
00000120: 459d 12be 40b4 06bb a3a8 0a3e b697 f13d
00000130: 36a3 aa3d e0c9 dbbc 0014 b73b e6f9 b43d
00000140: 7883 4ebe a113 123e 9ed4 b23d 530f 153e
00000150: 3a94 3dbe 6c55 afbd d0c3 e63c 3819 f5bd
00000160: 128c 14be b597 bbbd 2719 13be d460 163d
00000170: 4728 033e bb06 2e3e bacd e63d 247e 1ebe
00000180: 1623 e9bd b511 593e 83f8 433e 8215 39be
00000190: 8a39 ddbd 2d93 5bbe 00a5 4b3c d5b7 2c3e
000001a0: c0d8 40bd 9e61 42be 7842 8a3c 1c71 5d3d
000001b0: 401b 723c 0400 543d 4418 123d 6545 f4bd
000001c0: 1747 2fbe 6bda 053e d03c 953c c7d4 103e
000001d0: 270f 353e 8e61 27be 1090 77bd bc62 453d
000001e0: 40f5 0fbe 6412 0c3d 4829 8cbc e94b e1bd
000001f0: 4276 aabd 5220 dd3d 3c62 27be 76c0 e9bd
00000200: 8fb7 073e 1fd6 0d3e 5169 3abe eca6 f43e
00000210: 6314 0b3e f9cf 36be 46df a8bb cf49 463e
00000220: 7830 65bd 9eaf 553e c79c 553e 40a6 2e3b
00000230: ac90 0d3d 80ec 5bbc c55a cabd 80e7 efbb
00000240: bca0 403e 45ca 2dbe 11eb 37be 2546 333e
00000250: f620 003e da68 21be 8da4 31be 7ae7 82bd
00000260: baf5 0c3e 5a7f 1abe 941f b03d affc a9bd
00000270: 80e6 a2bd ceae 05be 8b7d 233e e00d 99bc
00000280: bc61 f0bd 4477 56be 8073 81ba 5a91 c6bc
00000290: 22aa 91bd 50ad 9dbd 0238 42bd f44c 0dbd
000002a0: 7020 5fbd f01b 07be 0ef1 8fbd d1d7 40be
000002b0: 3ea1 923d cefa 32bc 146f e53d 60bd 623c
000002c0: 40d1 153e 1341 c53d 2087 e8bb 1730 0c3e
000002d0: 941c 3abe 91a4 51be fc0f 6a3d 4328 50be
000002e0: 56c0 f73d 1c2c a3bd 5c57 19bd 410b 49bd
000002f0: 9743 dfbd cca8 7b3d c98f 153e da87 193d
00000300: d88b 69bd dfc2 093e c601 3fbe fc25 043c
00000310: a8cf 213e 723b cc3d 2550 82bd bc10 16be
00000320: a046 59bc bfe7 5ebe 9209 c13d 5a64 9d3d
00000330: 723c e93d 735a 3ebe 64c0 27be 8b01 403e
00000340: 134f 10bd a620 3abe b44e 2bbd bbdd 44be
00000350: 09d7 153e d31e 5cbd bc94 2cbe 48bc 17be
00000360: f18a f0bd 45c6 2e3e cf1e 373e a9d6 343d
00000370: 3680 f73d bd04 56be e726 5e3d e1c0 013d
00000380: f630 d33d e585 8a3d c92a d7bd c972 313d
00000390: 2c86 1f3d 4afa 493e 8a2d 593d e39a 5a3e
000003a0: b6d2 823d 4209 b03d 59b9 aa3d d05f f0bd
000003b0: 36e0 f93d 1830 4138 a8d7 10bc 399b 26be
000003c0: 8be2 e53c e85f 2bbd 6c98 02be 1a5e cc3d
000003d0: f2ee febd 527d 58be d252 c33d 95c6 0a3e
000003e0: 509d f4bc d865 39be 80ca 08bd b5fe c53c
000003f0: 0b8b 053e e6cc ecba e203 cb3c 39d2 19be
-0.14815255 -0.19056672 -0.03699305 0.29440063 0.12861758 -0.07134631 0.2669863 -0.09127932
-0.116518065 0.22461438 -0.20034079 0.08348368 0.14575045 0.19789957 -0.5470706 -0.1293861
-0.13087557 -0.06747979 -0.3138739 0.1562791 0.038986683 -0.034429427 0.18141556 0.015018895
0.17163347 -0.013513327 -0.08698899 0.11064297 0.11215448 -0.2144807 -0.21469316 0.05516132
0.032701194 -0.09854114 0.18096869 0.21467066 0.013588637 0.096185654 -0.17326745 -0.08228105
0.057141647 0.09869275 -0.12902603 0.15804903 -0.19444582 0.10642884 0.22864346 -0.1448965
-0.025475068 -0.12582332 -0.15658489 0.22201236 0.16971734 0.08828844 -0.20392604 0.19432281
0.12999876 0.031372458 -0.14134657 -0.15982682 -0.16702043 0.20990835 -0.1297766 0.11335039
0.13359372 0.1788698 0.12900768 -0.11474139 0.19573511 0.0145766735 -0.041175038 0.17512472
-0.14317806 -0.0020554215 0.13540892 0.11796515 0.08331911 -0.02682966 0.005587101 0.08836727
-0.20167339 0.142653 0.0873196 0.14556627 -0.18513575 -0.08561215 0.028169543 -0.11967701
-0.14506558 -0.09159795 -0.14365064 0.036713436 0.12808333 0.16994755 0.11269708 -0.15477806
-0.11383645 0.21198161 0.19137768 -0.18074611 -0.1080199 -0.21442862 0.012429476 0.16867001
-0.04708171 -0.1898255 0.016877398 0.054062948 0.014777005 0.051757827 0.035667673 -0.119272985
-0.17116962 0.13071601 0.018217474 0.14143668 0.17681561 -0.16345808 -0.060440123 0.048189864
-0.14058399 0.034197226 -0.017109528 -0.11000807 -0.08323337 0.1079718 -0.16346067 -0.11413662
0.13253616 0.13851212 -0.18204238 0.477836 0.13581996 -0.17852773 -0.0051535694 0.19364093
-0.055954427 0.20867774 0.20860587 0.0026649386 0.034561798 -0.013423085 -0.09880594 -0.007321298
0.18811315 -0.16971691 -0.17960764 0.17507227 0.12512574 -0.15762654 -0.17347927 -0.06391807
0.13765612 -0.15087643 0.08599773 -0.08300149 -0.07954121 -0.13054964 0.1596586 -0.018683374
-0.11737391 -0.20943934 -0.0009876341 -0.02423923 -0.071125284 -0.07699072 -0.047416694 -0.034497216
-0.054474294 -0.13194251 -0.070283994 -0.18832327 0.07159661 -0.010924054 0.11202827 0.013839096
0.14630604 0.096315525 -0.0070961863 0.1369022 -0.18174964 -0.20472933 0.05714415 -0.20327859
0.12097232 -0.079673976 -0.037436828 -0.049083 -0.109015636 0.061440274 0.14605631 0.037483074
-0.05701813 0.13453244 -0.1865302 0.008065697 0.15801871 0.09972276 -0.063629426 -0.14654821
-0.013261467 -0.21768092 0.094256535 0.07685156 0.11388482 -0.18589191 -0.16381985 0.18750589
-0.03523166 -0.18176517 -0.041823104 -0.19225208 0.1463281 -0.053740334 -0.16853613 -0.14817917
-0.11745251 0.17067821 0.17882846 0.04415003 0.12085001 -0.20900245 0.05423632 0.031678084
0.10312073 0.067638196 -0.105062075 0.04332236 0.038946316 0.19724384 0.053021945 0.21348147
0.06387846 0.08595516 0.083361335 -0.11737025 0.12200968 4.6059577e-05 -0.008840479 -0.1627015
0.028062126 -0.04183951 -0.12753457 0.09978886 -0.12447919 -0.21141556 0.09537281 0.13552316
-0.029860169 -0.18105257 -0.033396244 0.024169305 0.13041322 -0.0018066436 0.024782125 -0.150216

sequential/dense_2/MatMul f4 [8, 64]
00000000: 968c a43e 8838 06be 39b5 313e a07a 6bbe
00000010: 3cc9 40be e74b a2be ed70 243e 28af 8f3e
00000020: 4009 29be de43 083e 33ac 03be 5573 8dbe
00000030: d60b 19be 2c88 ba3d 94ca aebe b61d 2f3e
00000040: a276 603e 40b5 5a3c 6eed 693c 2d2e 2abe
00000050: 43db 393e 4623 4a3d c092 d7bc c7cf 0b3e
00000060: dd77 02bd 687d 1e3e d81a a73d 84f8 0bbf
00000070: 7222 303e 5a77 033e 2e9f 473d a8f6 34be
00000080: f1ad 2bbe 322f 2e3e bd5e e53c 19bb e33e
00000090: 005d 2a3b 9b29 64be b531 673d b3a9 663e
000000a0: c4d8 bbbd bd9c 3fbe 85b2 0fbe ea44 973e
000000b0: 9d65 d03c 2d13 373d 1187 a7be 62d3 00be
000000c0: 16e1 26be a0fc 593e daae 213e 28ef 6ebe
000000d0: acd4 52be 6e8d 2a3d 00b5 943d 3d20 13be
000000e0: 0c65 6e3e eb50 273d eae9 04bf 8753 2dbe
000000f0: 8d75 b9bd 3043 c63d 0aa2 813e c93f 953c
00000100: b472 7b3e 80f1 02bc 8052 37be 121e 803d
00000110: e898 563d 6c03 823e 8c9c 76bc 2c5c bbbd
00000120: 2f2e 93be 641d 753e fcec 8dbe a12f 273e
00000130: 5f56 babd 00f7 b1bd 83f9 83be 964e 263e
00000140: 5ade b2bd a2cc d73d 72c2 353e de1e 8f3b
00000150: eac7 88be 7e69 8a3d b686 1e3e a0fc f1bd
00000160: 29ea f9bd 26d6 4fbe d076 d33d 1f2b 563e
00000170: 0432 33be 7564 14be 9f12 453e 28bc 46be
00000180: 54da 2abd 9ed2 453e aad0 86be 8835 a3be
00000190: 300e 853d 74d7 71be cc16 5cbe 26f0 66be
000001a0: 4ced 583e 4b07 c2bd 924a 65be eabd ae3e
000001b0: e241 893e 4ac7 dcbc d78a 67be 444e b1bd
000001c0: 7112 00be b494 dfbd 50e2 34bd e4b6 933e
000001d0: 6d33 10bd 7e02 853e 5896 793d 064c dfbd
000001e0: 4ae0 38be b689 a83e 21fa 2bbf 995e 8abe
000001f0: 3e67 86be 002f 323c c056 81bd 0ac1 173e
00000200: 124d 4cbe fc3f 51be 02ec 79be 62e4 443e
00000210: b24b 88be d5e0 903e 80a2 b63d 6d6b 6c3e
00000220: 2846 203e aa0c 94bd 7c3d 823e 6661 1fbd
00000230: d3db 57bc 64ea 37be 2b01 86bc fe71 8dbe
00000240: de07 423c daa9 673d 8e3e 6fbe 3c7a 993d
00000250: 8ee9 9d3e 2aca 633d c4e3 903e bb2d 853e
00000260: 5e27 98bd f795 773c 6c9a a63d ac86 acbf
00000270: 6ca3 873e 90be fa3d 09cd 9a3d 8527 7c3c
00000280: 6439 2a3e e81b a63d 756c 443d 522b a23e
00000290: 5091 963d 56a1 65be 8511 913e 7af2 a33d
000002a0: b0c6 cabc f042 443e eae5 1a3e f7cc 5dbe
000002b0: 4fdc 9bbd e450 813e 5bbb 873e fc82 2fbd
000002c0: f8cc 6d3d 333b 363e 0509 2fbe 74bc ec3d
000002d0: 03e7 6ebe aa16 25be e40a 573e 00f0 8d3b
000002e0: b455 963d 4080 233d 58f7 96be 9caa a13d
000002f0: 654a 373e 9c88 5dbd 29ad 0abe 4b4b 563c
00000300: b077 9fbe e42e 9f3d 2ee6 0c3e af3e 68be
00000310: 205e 32be a2e7 a13e d7e1 e5bd 4b09 333d
00000320: f23a 043e 632f 21be 0008 6fb9 1692 2ebe
00000330: 9838 ff3d b0b6 85bc e15e 90bc cc25 7d3e
00000340: fe01 2f3e 8ce4 383e 6055 9fbe 76ca 103e
00000350: ad63 47be cf0e 0abe a06e ec3d de29 dd3d
00000360: 68f2 5739 a0bc 03bf 1666 173e 078d f1be
00000370: 0011 efba 1e8b 473e 4c1e 0bbf 2645 9d3e
00000380: 4ca4 8f3d e051 48be 8dd1 32be ee4c d9bd
00000390: 1145 8bbe ac4d 5d3e 71a6 43be fb5a 5dbe
000003a0: 8c78 3dbe 8272 cabb 7e24 74be 6b99 d4be
000003b0: 0099 08bc 6552 5fbd 1f3b 3d3d 2613 52be
000003c0: c485 02be 3ece 95bd 0697 223e 2c58 4d3e
000003d0: 8262 14be ee09 183e ecea 3fbd 0022 0cbb
000003e0: 82d4 033e bba8 d03e e6a8 47be 7e35 d63d
000003f0: 7a5a c8be 78b3 32be 0c96 bfbd 4b43 c03e
0.3213851 -0.13107502 0.17354287 -0.22995996 -0.18826765 -0.31698534 0.16058703 0.2806332
-0.16507435 0.1330714 -0.12858658 -0.27627054 -0.14945921 0.09108004 -0.3413893 0.17101178
0.21920255 0.013348877 0.014277799 -0.16619177 0.18150048 0.049350046 -0.026315093 0.1365348
-0.03185259 0.15477526 0.08159417 -0.5467608 0.1720064 0.12838498 0.04873579 -0.17672217
-0.16765572 0.17010191 0.027999276 0.44478682 0.0025995374 -0.22281496 0.05644389 0.22525673
-0.09172204 -0.18712135 -0.14032944 0.29544765 0.025439078 0.04469602 -0.32720235 -0.12580636
-0.16296801 0.21287775 0.15789357 -0.23333418 -0.2058894 0.041638784 0.072610855 -0.14367767
0.23280734 0.040848654 -0.51919425 -0.16926394 -0.09055624 0.09680784 0.25318938 0.018218892
0.24555475 -0.007992148 -0.17902565 0.062557355 0.052391917 0.25393236 -0.015051972 -0.0914844
-0.28746173 0.23936993 -0.27719867 0.16326763 -0.09098505 -0.0868969 -0.257763 0.16240916
-0.087338164 0.105370775 0.17749956 0.0043676933 -0.26715022 0.06758402 0.15481076 -0.118157625
-0.12202866 -0.20296535 0.10325396 0.20914887 -0.17499548 -0.14491446 0.19245385 -0.19407713
-0.04171212 0.19318625 -0.26331073 -0.3187678 0.06496847 -0.23617345 -0.21493071 -0.22552547
0.21184272 -0.09474047 -0.22391728 0.34129268 0.26808077 -0.026950497 -0.22611557 -0.08657506
-0.12507035 -0.10917035 -0.04416114 0.28850472 -0.035205293 0.25978464 0.060934395 -0.10903172
-0.1805431 0.32917565 -0.6717854 -0.27025297 -0.26250643 0.0108754635 -0.063153744 0.14819732
-0.19951275 -0.20434564 -0.24406436 0.19227746 -0.2662025 0.28296533 0.08917713 0.23087855
0.15651762 -0.07228978 0.25437534 -0.038911246 -0.013174969 -0.17960507 -0.016357979 -0.27626032
0.011842696 0.056558467 -0.23363706 0.074940175 0.3084225 0.05561272 0.2829877 0.26011452
-0.07429384 0.015111438 0.081349224 -1.3478599 0.26491868 0.12243378 0.075586386 0.015390282
0.16623455 0.081107914 0.047954995 0.31673676 0.07351935 -0.22424826 0.2833368 0.08005233
-0.024752945 0.1916616 0.15126768 -0.21660219 -0.0761038 0.25257027 0.26510128 -0.042849526
0.0580568 0.1779602 -0.17093284 0.11559382 -0.23330311 -0.16121927 0.21000248 0.0043315887
0.07340565 0.03991723 -0.29485583 0.07893869 0.17899473 -0.05408536 -0.13542618 0.013079475
-0.31146002 0.077726156 0.13759682 -0.22680162 -0.17418718 0.31622034 -0.11224716 0.043710034
0.12913111 -0.15740733 -0.00022795796 -0.17047915 0.12461966 -0.016322464 -0.017623367 0.2472145
0.17090604 0.18055934 -0.31119823 0.14139733 -0.19471617 -0.13482212 0.115445375 0.10799001
0.00020594301 -0.51459694 0.14785036 -0.47177908 -0.0018239319 0.19486663 -0.54343104 0.3071682
0.07013759 -0.19562483 -0.1746275 -0.10610376 -0.2720113 0.2161166 -0.19106461 -0.21616738
-0.18503016 -0.006178201 -0.23842046 -0.415233 -0.008337259 -0.054521937 0.04619896 -0.20515117
-0.1274634 -0.07314728 0.15877923 0.20053166 -0.14490703 0.14847538 -0.0468549 -0.002138257
0.12874034 0.4075373 -0.19498023 0.104594216 -0.39131528 -0.17451274 -0.09354791 0.3755134
